artifacts/models/KitNET/kitsune_old.pth (torch, 41065 bytes, 65 tensors)

tails.0.encoder.weight f8 [3, 3]
0	0xbffc41f8aa76d711	-1.7661062868841706
1	0xbfe72b1053af480d	-0.724006808706919
2	0xbfe4c5daf61a1fd1	-0.6491522604637742
3	0xbfdabd53c43c6165	-0.41780561603220284
4	0x40009f6e11de77cd	2.0778466602341497
5	0xbff9913e9e5f052b	-1.59796010841121
6	0xbff208df433632f0	-1.1271660447557075
7	0x3fcca08ddd55f375	0.22364972407731512
8	0xbfc98c31cb15ea4c	-0.19959089676179287

tails.0.encoder.bias f8 [3]
0	0xbfd8620105c97ebe	-0.38098168912072683
1	0xbffa0b1f5412fddf	-1.627715423979559
2	0x3fc2b1e43480d56a	0.14605381549487656

tails.0.decoder.bias f8 [3]
0	0x3fe9e6e04e245b77	0.8094331289492932
1	0xbff83abe16850637	-1.5143414382622618
2	0xbfa476a07058cce4	-0.0399675500051673

tails.1.encoder.weight f8 [10, 8]
0	0xbff72d105915dff7	-1.4485019187832202
1	0xbff0525c1be72db3	-1.0201073732340376
2	0xbff3b225292ada98	-1.2309924705602153
3	0x3fef0fdd464f2db1	0.9706865666607226
4	0xbff413575c0ba7be	-1.254721984436841
5	0xc0078a183ccf4ac6	-2.942429041935017
6	0xbfef298a347db4bf	-0.9738207841125116
7	0xbfedc7212f85ed63	-0.930557816332492
8	0xbfe3c002f0c493be	-0.617188902139439
9	0xbfffe19a9b209230	-1.992579084363694
10	0xbffda3435c977321	-1.8523591629847902
11	0xc001189644383152	-2.137005360569824
12	0xbffa846da3e5a387	-1.657331123564491
13	0xbf9c83ae65842944	-0.027846074052868333
14	0xc001e12f0744d154	-2.2349529807926647
15	0xbfee594bebe95a47	-0.9484004600188393
16	0xbfe4325af506c46b	-0.6311468873665381
17	0xc001aa7ef9c26aba	-2.2082499992805795
18	0xbffbc7fd15457621	-1.736325343218944
19	0xc00114a135facb49	-2.135073110309723
20	0xbffbe95a8793c4b3	-1.7444711013779794
21	0x3fc114b3fc6720ed	0.13344430755956385
22	0xc0021495f1ced9cc	-2.2600516215563626
23	0xbfece52444eaf8cb	-0.9029713960697107
24	0xbfe44f4b405ae441	-0.6346794373449783
25	0xc00166d7698cdd6d	-2.175215553866727
26	0xbffdc2f80119b5b5	-1.8600997965798858
27	0xc00261c6adcc5b68	-2.2977422311773132
28	0xbffcece87e42cce9	-1.807838910300058
29	0x3fc870bf35ff96ea	0.19094076286926703
30	0xc0018877f934c53b	-2.191635081217695
31	0xbfef10197223efa4	-0.9707152585319716
32	0xbfe964fc2492bf7e	-0.7935772623368249
33	0xc00224a48a2ce725	-2.2678919596627503
34	0xbffc7c622bcab57e	-1.7803670607202942
35	0xc003e58427be5e8f	-2.4870684723826524
36	0xbffca6ab9031bc39	-1.7906909592236515
37	0x3fd5830ab6c2915e	0.3361231598630833
38	0xc0023f9e5da191fa	-2.281063777440292
39	0xbfede840bc49e396	-0.9346011807930263
40	0xbfe9b6cf2468949b	-0.8035655699828966
41	0xc001bcefe756c4ce	-2.2172544549326636
42	0xbffddfa094d1cea5	-1.8670965016616858
43	0xc0034400d3199897	-2.408204697817449
44	0xbffad36ff5b5a8f5	-1.676620445063745
45	0x3fd40b8ffaad6203	0.31320571403696834
46	0xc0028109b28eba97	-2.3130067777449983
47	0xbfed678c8409ff0a	-0.9188902453315404
48	0xbff3806982e492d1	-1.2188506234171437
49	0xbfed121185f46f7d	-0.9084556213669966
50	0xbff2198e3b51d2ee	-1.1312391583607524
51	0x400522918041f008	2.6418790836451116
52	0xbff387fb0bbfb249	-1.2206984003961614
53	0xc00ba2898a80dea7	-3.4543639011934206
54	0xbfe640f61caaebf5	-0.6954298553386012
55	0xbfe89f25d67a761d	-0.7694272221594393
56	0xbff4901b4c53cc98	-1.2851822835480444
57	0xbff091a21bec77ce	-1.035554989888158
58	0xbff1cbf57dc91441	-1.112294665669893
59	0x4003f5e3a0370cf1	2.495063068084726
60	0xbff70a8d059c2b67	-1.4400758952276307
61	0xc0091a04bd3d1d23	-3.13770435183291
62	0xbfee8907f1838846	-0.954227420527112
63	0xbff26684d6ddf6b3	-1.150029029201886
64	0xbff81987f97e85c3	-1.506233191096144
65	0xbff4de7477ca31ed	-1.3043102912225735
66	0xbff3e7d6da061576	-1.2441013828805274
67	0x4001b883a11bcd34	2.215094813023507
68	0xbff790e1b93662f7	-1.4728715166913255
69	0xc0078cf7ae1cfe7d	-2.9438317873571678
70	0xbfefb4b910e4b443	-0.9908109025906316
71	0xbff365ce91876b95	-1.2123552021718969
72	0xbff6831ff50ee44e	-1.4070128986916361
73	0xbff3ea4b775ad7f3	-1.2447008764552236
74	0xbff3f503c42fc54b	-1.2473180450000025
75	0x4002d0e4a39655a6	2.35199859430823
76	0xbff632b00202fa6a	-1.3873748854236063
77	0xc0079e1a949c04f4	-2.952199135791142
78	0xbff130c6ed6aa562	-1.0744084619603531
79	0xbff30d0af86352bc	-1.1906842901855006

tails.1.encoder.bias f8 [8]
0	0x4002e9696bc0b008	2.363970605676517
1	0x3fa174e19ad9c1e0	0.03409485831514636
2	0x3fa3f1a122cf2c0f	0.038952861308267576
3	0x3fe1e2a2d2fede44	0.5589155312545206
4	0x3facea329f106e37	0.056474286953939794
5	0x3fc6f35537757826	0.17930093009903308
6	0x3faa71a55a426f91	0.05164829947281569
7	0x3ff5ff4205fad008	1.3748188241561383

tails.1.decoder.bias f8 [10]
0	0x3f90954c50e22df1	0.016194527088868985
1	0x3ff0a1da263f3f69	1.039514684107383
2	0x3ff17f670d268d9b	1.0936041368193858
3	0x3ff1ed9a58599e1a	1.1205085230993803
4	0x3fef91ddd2379c9a	0.9865559678845728
5	0x3ff0ef416828cba0	1.0584119862294088
6	0xbff721888b715371	-1.4456868597964923
7	0xbff43cafc0334973	-1.2648160465074312
8	0xbff598615855ab15	-1.3497022104808754
9	0xbff552c3ba540ef4	-1.3327061918689056

tails.2.encoder.weight f8 [1, 1]
0	0xc01cdb741d365198	-7.214310127678253

tails.2.encoder.bias f8 [1]
0	0x3ff04a4b541a7d45	1.018138245133586

tails.2.decoder.weight f8 [1, 1]
0	0xc01cdb741d365198	-7.214310127678253

tails.2.decoder.bias f8 [1]
0	0x3fcd9ccb0b22dc26	0.23134744685896286

tails.3.encoder.weight f8 [5, 4]
0	0xbfd34c68f3b0516f	-0.3015386943600537
1	0xbfe795b836eb975b	-0.7370263168965993
2	0xbfe92237b5ae7299	-0.7854269550767469
3	0x3fa8553069ec8aab	0.04752494137780635
4	0x4004278e59504e98	2.519314477694774
5	0x3fe6d341e831335d	0.7132882628444396
6	0xbfc65ca9634f175a	-0.1747028098017676
7	0x40047861fdd1c14a	2.558780653918949
8	0x3fe2769f5a42be25	0.5769802821068352
9	0x3fc7b4214d1a5e8e	0.18518463387293987
10	0xbfe0285b599c84a2	-0.5049263715956338
11	0x3fd9a115bb0b4954	0.4004568411447924
12	0xbff764934e7c2af3	-1.4620545450040339
13	0xbff83743df0960ac	-1.5134924614303982
14	0xbff0ddddba140ed2	-1.054166533344802
15	0xbff756d04ef877f5	-1.4586947521961495
16	0x3fc21fd4c985b64b	0.14159641113239937
17	0xbfeb33a665e7fa6b	-0.8500549307207853
18	0xbfc87ccada860ed1	-0.19130836172199975
19	0x3fd7b60aba260d38	0.37048595598772094

tails.3.encoder.bias f8 [4]
0	0x3fc82737df053448	0.1886968459097338
1	0x3fd769796625ccde	0.36581263518674045
2	0x3f825081d8b56b1d	0.008942617822574267
3	0x3fbd75d740c2300e	0.1150793583967131

tails.3.decoder.bias f8 [5]
0	0x3fa3467aff7656e5	0.03764709824024041
1	0x400be0820ed688e9	3.4846230658741786
2	0x3ff317f308eaae9f	1.1933470104512833
3	0xbffa5d2c4ff13854	-1.647747337603069
4	0xbfd1643a4ebfc35f	-0.27174241724337905

tails.4.encoder.weight f8 [5, 4]
0	0x3fc29d2971a0d86c	0.14542120025879812
1	0xbfe2f0b81c8671fe	-0.5918846661693917
2	0xbfeaa647286dfd17	-0.832797602619311
3	0x3fe4863e027455c8	0.641386990350548
4	0x3fdb751e950139a6	0.4290234046101439
5	0xbfb78c480a3eda59	-0.09198427438864466
6	0xbfc2ca3702cec1e9	-0.1467961085995875
7	0x3fcb7191206c35b2	0.21440328677310344
8	0x3fea497a2e9c23ed	0.8214693937635481
9	0x3fe81e62ac73a8fe	0.7537091606330077
10	0xbfd41e4717479e3c	-0.31434800408758057
11	0xbfbd185ba47b6878	-0.11365292325663912
12	0x3f9b1741f9aecb8b	0.026455908646038345
13	0xbfea0f97257e03a5	-0.8144031269331334
14	0xbff0d6c96071a312	-1.0524381415691022
15	0x3fd1b008d216d857	0.2763692905094834
16	0x3fb6d6630377d646	0.08920878252669082
17	0xbfefe7047403a69a	-0.9969503656295331
18	0xbfe9d7e2483462d2	-0.8076030168768631
19	0x3fe0b18f42028bc6	0.5216747559792274

tails.4.encoder.bias f8 [4]
0	0xbfe04e80c01774f0	-0.5095828773297892
1	0xbfa579c8b3d19243	-0.041944763136403405
2	0x3fd6cf938064f5ee	0.35641944445146023
3	0xbfdcc2de87ed879c	-0.4493938758297362

tails.4.decoder.bias f8 [5]
0	0x3fbdd873613aa8bb	0.11658402560957175
1	0x3fcacbd1204f4fee	0.2093449981463204
2	0xbfd10b78c0be3b96	-0.26632517645423925
3	0xbfd15446670d1e5b	-0.2707687383994874
4	0xbfac760f2342144d	-0.055588219694108966

tails.5.encoder.weight f8 [7, 6]
0	0xbff230eca4f230c6	-1.1369444316106168
1	0xbfeb2f971d3ab771	-0.8495593615423173
2	0xbfd16e19d7f09f37	-0.2723450287617086
3	0xbfd5f9297a8560ac	-0.34333264317457224
4	0x3fa3f792dac54bfc	0.038998212056547715
5	0xbfe196467196c8f5	-0.5495941370520813
6	0xbff4f4e869b1d16a	-1.3097919586844804
7	0xbfec1986ec7651db	-0.8781160944368439
8	0xbfc7ed55ac94d83c	-0.1869303791697251
9	0xbfd6d12901b0f56d	-0.3565161243930877
10	0xbfbfbdb30f046513	-0.12398833386068402
11	0xbfe41c2195cf53e1	-0.6284339834188551
12	0xbff4e9049e06ea9a	-1.3068891690187798
13	0xbfefa5fd5b1d670b	-0.9890124110781654
14	0xbfd9cc6920c72de1	-0.4031012363527378
15	0xbfd8d8918e43014b	-0.3882182969355383
16	0xbf9f270d7ed2c698	-0.03042241179054503
17	0xbfed262dfb1086f3	-0.9109105971913024
18	0x3fc53f28f2a18466	0.1659899887772866
19	0xbfc97e0ab99a1024	-0.19915899336422271
20	0xbfd1334b1326c363	-0.26875569219833134
21	0xbfcf2f4974725a3b	-0.24363058267472745
22	0xbfd7d1d92d4ff9cf	-0.3721831266883812
23	0xbfb45b91492b62f3	-0.07952220951427673
24	0x3fdbfa0899550022	0.4371358392127168
25	0x3fd6d706c178bb07	0.3568741692896968
26	0xbfe7afdda2347786	-0.7402179878297239
27	0xbfd0ebfff0df7e7f	-0.2644042827869057
28	0xbfedca6822f739e9	-0.9309578593181956
29	0xbfde17d66d937644	-0.4702049322203019
30	0xbff369ff9ea7367e	-1.2133785436048181
31	0xbfffaca8f8e6d904	-1.9796533320164267
32	0xbfea025d846de77e	-0.8127887331495314
33	0xbffe6ae81ecfc108	-1.9011002734733342
34	0xbff22d446161e152	-1.1360515407560183
35	0xbfe23a1fc1ffd493	-0.569595221428829
36	0x3fe510a166f7d6b7	0.65828008757554
37	0x3ff97c3636b36dd8	1.5928251396897988
38	0xbff8eb850e4327f9	-1.5574999386903967
39	0xbfd61492dcf8b978	-0.34500571803336966
40	0xc001f6e7e7fd133a	-2.2455595134837525
41	0xbff646b04360eac5	-1.3922579414344665

tails.5.encoder.bias f8 [6]
0	0x3fb74a8dfe66f1f0	0.09098136387814981
1	0xbfe2faf41ce9ad19	-0.5931339802458836
2	0x3fdf9f70a758136e	0.4941064485758976
3	0xbfb40684c9b5a07a	-0.0782244675116334
4	0x3fed1d6145325a9a	0.9098364211557339
5	0x3fe6d01e55465559	0.7129050889513265

tails.5.decoder.bias f8 [7]
0	0x3fe02072c0f85ea6	0.5039609688710314
1	0x3fd43b02b0d562fd	0.31610171574497753
2	0xbfde63c384e6ff58	-0.47483909586661843
3	0x3fea61aa567c9ac1	0.8244220437234945
4	0x3fcf0c9ad04c592a	0.24257216616451532
5	0x3ff1ad5a97f8d51e	1.104822724953301
6	0x3fcf9b7318ac78eb	0.2469314451672696

tails.6.encoder.weight f8 [4, 3]
0	0xc00b7de4ed2c459c	-3.436471798814365
1	0xbffd0945ec71407f	-1.814763949969375
2	0xc00d73547d893548	-3.681313496351013
3	0xc009e8cbab488512	-3.238669717932347
4	0xbffd4796b5435987	-1.8299777107800723
5	0xc00ee3c4cc36fd49	-3.861215205600875
6	0xc00dd00dbdc24ea2	-3.726588709347042
7	0xc007ff54b6a9bb9c	-2.999673296980701
8	0xc006163280d387e9	-2.7608385147623165
9	0xc00af73aefb5fe01	-3.370717880956136
10	0xc0091a614a3aa066	-3.1378808783666043
11	0xc007765b840760a8	-2.93279173991694

tails.6.encoder.bias f8 [3]
0	0x3fc2bf50a3eecaea	0.14646347050219016
1	0x3ff1f7c45ca23fe3	1.122989999628765
2	0x3fb6f13de8c55c5e	0.08961855824360174

tails.6.decoder.bias f8 [4]
0	0x3fd7cad890de42fa	0.37175573489461977
1	0x3fd801f2c11f8447	0.3751189123123066
2	0x3fe68dd1639829a0	0.7048117585375628
3	0x3fe7888c405eb813	0.7354184396006097

tails.7.encoder.weight f8 [5, 4]
0	0xc004ffd28c6ca0ea	-2.6249133082056817
1	0xc00423ba00aa9657	-2.517444615560446
2	0xc00674bad683cf8e	-2.806996990106149
3	0xc002ced49b2052b1	-2.3509914511908723
4	0xc003542d27dc0792	-2.416101752664823
5	0xc005eaa73729ac26	-2.7395767507164406
6	0xc007799b1313172b	-2.934377812404724
7	0xc002bab62b5fa421	-2.3411677731096607
8	0xc0037a0b53697eb7	-2.4345919148034585
9	0xc004bbe532a8f95a	-2.5917457540337354
10	0xc008360a03688e42	-3.026386286381041
11	0xc00438d9bbcb412a	-2.527759043827378
12	0xc004e4067bcf74d2	-2.611340491550984
13	0xc0068d3d5fa83825	-2.8189647172175847
14	0xc00775b3ce085dfa	-2.932471856718391
15	0xc003154a6ea6b20f	-2.3853958744641726
16	0xc00ad9856ba240a6	-3.356211510552458
17	0xc0127be8a22c67e0	-4.621004613838494
18	0xc00002ae5649764b	-2.0013090840500687
19	0xbff1d2e5bc7cc761	-1.113988624838804

tails.7.encoder.bias f8 [4]
0	0xbfc95d733ab7c3ba	-0.19816437117654379
1	0xbfd16b1eaf6fdfc7	-0.2721630776645693
2	0x3fb54042f98eab60	0.08301180451114254
3	0x3fe0c8710bb30d63	0.5244679668907505

tails.7.decoder.bias f8 [5]
0	0xbfc60a11c098d688	-0.17218229202415025
1	0x3fc7cebe9e9633eb	0.18599684470646535
2	0x3fe3dea2576a9f5c	0.6209270198205377
3	0x3fe9269f1848a8bf	0.7859645342153029
4	0x3fe0d68cf8dd6e40	0.5261902676242656

tails.8.encoder.weight f8 [6, 5]
0	0xc008ca84dfad9354	-3.0988862490507163
1	0xc004edc099e10b1e	-2.616090013675957
2	0xc003d25bef3dd413	-2.4777144137137923
3	0xbff6a2b1fe5edcf9	-1.4147205292081806
4	0xbfe6c8540b20515f	-0.711954137545529
5	0xc008c6668bb45659	-3.096875277939756
6	0xc0060d3e3221520a	-2.7564662853640174
7	0xc0030e040cd03323	-2.3818436623609087
8	0xbff6248c38b0dab7	-1.3839227880941232
9	0xbfe6b31b1ca9bf17	-0.7093635139299036
10	0xc004592b3fc74eca	-2.543539522428408
11	0xc0033a14f3c43c50	-2.403360275674949
12	0xc0036eef3ec8eca3	-2.4291672616069078
13	0xc0008e8a7c4af79e	-2.0696000776651564
14	0xbffe0dc2f8756a16	-1.8783597665229812
15	0xc003de351fbd497c	-2.4834997634545157
16	0xc0034f194cfe189e	-2.4136224761051173
17	0xc0055035d8a327ba	-2.6641652035513887
18	0xc0009b587513b710	-2.075852312721402
19	0xbffc1b875b9b486a	-1.7567208841687951
20	0xc00558ab307a7508	-2.668295267808052
21	0xc00383c7418fe500	-2.4393448946035505
22	0xc00541edcb3f49b3	-2.6571918371857577
23	0xc000b2e1a806bb5d	-2.087344467835847
24	0xbff798192067f7ff	-1.474633337580144
25	0xc004cca45caa99c0	-2.5999228705943267
26	0xc004475e6c65e957	-2.5348480671502034
27	0xc00387ea6176e147	-2.441365014496259
28	0xc000df390d068454	-2.108995534669285
29	0xbff935cb7b64ffc9	-1.5756335086916684

tails.8.encoder.bias f8 [5]
0	0xbfe34aee692c4c51	-0.6028968862687042
1	0xbfe1803e5b8edb6b	-0.5469047344439394
2	0xbfe0a9de58e7e41e	-0.5207359062616239
3	0x3fadbfddd44133e8	0.05810445037841544
4	0x3ff65f46f13c5c92	1.3982610152504873

tails.8.decoder.bias f8 [6]
0	0x3fcd680ecf558d52	0.22973809360255842
1	0x3fccadbd06300704	0.22405207445267916
2	0x3fc635afbeb348f5	0.17351338206805847
3	0x3fc0adfdb9ccbbcd	0.13030978748562774
4	0x3fd6b241e9d07845	0.3546299727767102
5	0x3fd974708106d568	0.39773190117133206

tails.9.encoder.weight f8 [10, 8]
0	0xbfe718929621d72a	-0.721749585368092
1	0x3ff0536d38b1f20c	1.0203678335811928
2	0xbfe891cc7f58c92b	-0.7677977072947092
3	0x3fee27fe010ebe21	0.9423818607955959
4	0xc006ad6d8b7509de	-2.8346815962879495
5	0xc00448d570d95604	-2.535563356049126
6	0xbffefbaa7f1d7fc7	-1.9364418950499258
7	0xc00e3ee832910d6d	-3.780716319133424
8	0x3ff732a2a9c9bc6f	1.4498621589989644
9	0x3fd07bd6ec450c67	0.25755856583800213
10	0xbffbcc0099449e2f	-1.7373052584679376
11	0xbf8b88d78facefbc	-0.013444599220399193
12	0xc00d70f226f19029	-3.6801493685216156
13	0xc006a501dee1ac83	-2.8305699741954995
14	0xc00938ee51bc0bd7	-3.152798307944504
15	0xbff5749ad509b811	-1.3409679719729903
16	0xbffb98f635ba0503	-1.7248441790291629
17	0xc0023470473a143c	-2.27560477872842
18	0xc00182ff3a8bc118	-2.1889633726024265
19	0xbffe70717e4135c1	-1.9024519855332616
20	0xbff41157722338ab	-1.2542337854861596
21	0xbff4a18d9dac056f	-1.2894416960774284
22	0xbffd20078cf96d3b	-1.8203197008904926
23	0xbff31d2fbffd586e	-1.1946256160349793
24	0xbff5fdb43f6e8a94	-1.3744394758038299
25	0xc00326929a5e92a5	-2.393834310542234
26	0xc0046327c98d1403	-2.548415732019295
27	0xc001bfd6ac35693f	-2.2186711744117527
28	0xbff3e68eb9b06569	-1.2437884572485365
29	0xbff416d59e7d1642	-1.2555748167955163
30	0xbffb18823f6b46ba	-1.6934835889154969
31	0xbfe4c712f47218ab	-0.6493010305719243
32	0x3fe309278849d8eb	0.5948674833187203
33	0xc007a88aaf282cbc	-2.9572957691321715
34	0xc00ecb92c9e5df23	-3.8494010709072355
35	0xc009c0de99c0f665	-3.219174576951263
36	0xbfe9d6a896350c75	-0.8074534353003303
37	0xbfdfe92cd07e3ea8	-0.4986068759981017
38	0xc004228d45ebde47	-2.516871019611958
39	0x4007fea7f71a04d0	2.999343805772334
40	0xbfff54ffb63f9f51	-1.9582516783793447
41	0xc0018410c7579470	-2.1894851277925724
42	0xc0017a3cb6631fc7	-2.1846861123085293
43	0xbffec3a506c784bc	-1.922764803392325
44	0xbff2cba2d13b752b	-1.1747158215651534
45	0xbff45ed6af913b5c	-1.273153959092915
46	0xbffb5b40d7369c88	-1.7097786337633654
47	0xbff26f5498777b36	-1.1521802860003851
48	0xbffd7bf7dc727314	-1.8427656756604778
49	0xc00127c198313150	-2.1444122209560774
50	0xc001fda38e12c2ab	-2.2488471126055933
51	0xbffeed86b1729e7d	-1.9329897815277086
52	0xbff3736f077d4fa0	-1.2156820576246687
53	0xbff6b036a87180ff	-1.418020875913555
54	0xbffa9008e21d4fb4	-1.6601647217366748
55	0xbff17380bb43f993	-1.0906989398059508
56	0xbfffe91c83c9c34a	-1.9944119594549243
57	0xbfeb68c7438d65e5	-0.8565403289205135
58	0x3ff2ce7ded64675d	1.1754130623944186
59	0xbfc1168fd39f1633	-0.13350103219106443
60	0xc0073b47cbc5deea	-2.903945533729588
61	0xc000277063f80944	-2.0192573366231574
62	0xbfd3872d61ad2e93	-0.3051255658981315
63	0xc011344f2d716d8c	-4.301083288238612
64	0xc0038fb9c4545a23	-2.4451785410158364
65	0xc0017758e9ba33ee	-2.1832750568341828
66	0x3ff09b4caad6a75b	1.0379149125460205
67	0xbfea5859dee935ea	-0.8232850412111337
68	0xc004dade33f79dca	-2.6068691310826795
69	0xbffbed66d3c8414b	-1.745459391855621
70	0x3fec668a025cf076	0.8875169798043447
71	0xc00f0a714871e4f6	-3.8800988826520735
72	0xc0030596f36d18c6	-2.377729322211141
73	0xbfff0f71bbb12d98	-1.9412705737803204
74	0x3ff2e9b83bdbce6e	1.18206046468995
75	0xbfe4ea1dbad2f483	-0.6535786293894862
76	0xc00505daaeaed758	-2.6278585097415252
77	0xbffb359b1f392223	-1.7005873889594418
78	0x3fe57f0bd7a04689	0.6717585765311053
79	0xc0103b2c48e02a23	-4.05778612011139

tails.9.encoder.bias f8 [8]
0	0x3fe13c1814693c01	0.5385857008603808
1	0xbfc193493cdb0d9b	-0.1373073146006448
2	0xbfa984cf894709b0	-0.049841390140062614
3	0xbfd21ab767124ba3	-0.28288064065525925
4	0xbfd90db6e5c00e9f	-0.3914620631842158
5	0xbfde41460a41470d	-0.47273398400749117
6	0x3fbe2f85072f2813	0.11791259217639576
7	0xbfaf742b2a29fcff	-0.06143317117402524

tails.9.decoder.bias f8 [10]
0	0x3fc36b53424794a9	0.15171280609425722
1	0xbfdc6ac782da2b3c	-0.4440172937253697
2	0x3fe8ab1f1179aa7a	0.7708888379396079
3	0x3fec569fb86b1dc5	0.8855742074892353
4	0x3fd5a8b598b1db43	0.33842220222088687
5	0x3fc5e75e0da107ad	0.17112327256660134
6	0x3fdcf696f2c97bd8	0.45255063733742196
7	0xbfc24dfae8cfe4af	-0.14300476424958705
8	0xbfe316b663620e77	-0.5965225163531177
9	0xbfdb88f0317b11b9	-0.4302330477915138

tails.10.encoder.weight f8 [2, 2]
0	0xc010e1811e407fbd	-4.220219109236436
1	0x40070cdbba466e01	2.881278472208351
2	0xc010ac226fd2c858	-4.1681001160050855
3	0x4007719bb0058e01	2.930472731751934

tails.10.encoder.bias f8 [2]
0	0x3ff0f4c5cf26dfbc	1.0597589580411144
1	0xc010e246af20f122	-4.220972763429275

tails.10.decoder.bias f8 [2]
0	0xbfc4a6e46dde8c08	-0.16134314884865852
1	0xbfc7533f1f436476	-0.1822279837277027

tails.11.encoder.weight f8 [2, 2]
0	0xc016ecbb8d1b224e	-5.731184201031807
1	0x400333fbea43a027	2.4003828336608595
2	0xc01699dc491668bc	-5.650254384987587
3	0x40045f72e69a6e3b	2.5466058746221996

tails.11.encoder.bias f8 [2]
0	0x3fd4a80a4568b13c	0.3227563550779171
1	0xc001fde9d98e0c70	-2.2489811893915927

tails.11.decoder.bias f8 [2]
0	0xbff0af501d5f8357	-1.042801012743629
1	0xbff24bb693828345	-1.1434846651174706

tails.12.encoder.weight f8 [2, 2]
0	0xc0006d91257192c3	-2.0534995007786576
1	0x4017347fc36a12ec	5.801268628453482
2	0xc0133ae85bbaf36f	-4.807527001653269
3	0x4009b90da71676d1	3.2153580716829784

tails.12.encoder.bias f8 [2]
0	0x40173e7ca1270048	5.811022298818052
1	0xbff8592324d9cff8	-1.5217620315061122

tails.12.decoder.bias f8 [2]
0	0xc00ba93e2c72a14f	-3.457638118026956
1	0x3ff6c422b9e566c8	1.422884679943694

tails.13.encoder.weight f8 [2, 2]
0	0xc00b2fb3e759be49	-3.398292357851265
1	0x40136df1cdf43d8f	4.857367723495726
2	0xc0107372d9bad826	-4.112742807416032
3	0x4010729d9551a1c3	4.111929257495322

tails.13.encoder.bias f8 [2]
0	0x400f644a901c9852	3.923970342514658
1	0xbfeb3050d9b51405	-0.849647927484171

tails.13.decoder.bias f8 [2]
0	0xc007b5466047a57a	-2.9635131379952186
1	0xc0007d8c591701f0	-2.0613028488298752

tails.14.encoder.weight f8 [2, 2]
0	0xc014d6b772316be4	-5.209684166208692
1	0x4006d3f912c24767	2.8535024133242817
2	0xc0146f4d5070a692	-5.10869336783948
3	0x4007d1070d4a1808	2.977064231704393

tails.14.encoder.bias f8 [2]
0	0x3fd2d1acfb617e35	0.29404758976849915
1	0xc00d1834c82cf026	-3.636819423552896

tails.14.decoder.bias f8 [2]
0	0xbfeae71c8123c7b1	-0.840711834169488
1	0xbfecd30185164eda	-0.9007575606687752

tails.15.encoder.weight f8 [10, 8]
0	0xbfcf28088728ff75	-0.2434092197381649
1	0xbffcc822b96b0354	-1.7988612406627071
2	0xbffeab1dc541ebbf	-1.9167764382716397
3	0x400090a26311eba8	2.070622228607551
4	0xbff665e24c6bf1be	-1.3998740182133669
5	0x3fd222fc578e8411	0.28338535833796735
6	0xc004134e6e118fae	-2.5094269370183246
7	0x3ffbffebb415349c	1.74998064370019
8	0x3fb47e1b727ba33f	0.08004924340242513
9	0xbffcc79d4764db0b	-1.7987339772059296
10	0xc00285d4667af888	-2.315346527698299
11	0x4000dc417d0fa098	2.1075467844385223
12	0xbff47de461b035ba	-1.2807353797864907
13	0x3fe4d88b8b6f3580	0.6514337275818178
14	0xc0065fcaf3d26309	-2.7967738197879766
15	0x3ffdfd4f08bef4ef	1.8743429509771052
16	0xbfe582d82afb4526	-0.6722222175104988
17	0xbff70cb8bd1cc001	-1.440605868072453
18	0xbfea66e3995791af	-0.8250596995317688
19	0x3ff87a3a997c34c2	1.5298410411372036
20	0xbff95ab2f84aa460	-1.5846433352364997
21	0xbfe750fd6c35bb71	-0.7286364663576547
22	0xbfedf37482fa23fd	-0.9359686430117332
23	0xbfe5de7c1873d35e	-0.6834087827288433
24	0xbfe110958180d17f	-0.5332744149550733
25	0xbff62bcdd4bb1aa6	-1.3856943425941295
26	0xbff1aee29a9a3044	-1.1051965750839523
27	0x3ff9c21bb6b61914	1.6098897111092514
28	0xbff972a983a72f48	-1.5904936926553592
29	0xbfe509311d4a52c0	-0.657372052390734
30	0xbfef277e2d3d3cba	-0.9735709079340247
31	0xbfe372fd223c3dd0	-0.6077867191942747
32	0xbfe152e84b3568c3	-0.5413705319326926
33	0xbff922b0b3134801	-1.5709692950372303
34	0xbff2236b30c22911	-1.1336471466661957
35	0x3ff9df0fcc25499c	1.616958424991572
36	0xbff9ccb6b50c7a22	-1.6124789306846954
37	0xbfdcfc069380c3c7	-0.45288242725933653
38	0xbff47f6c009ca478	-1.2811088584806196
39	0xbfb1dd8566ea52ad	-0.06978639376240876
40	0xbfddfd192919bc15	-0.4685728932735754
41	0xbff86c34204187c4	-1.5264168987273345
42	0xbff5d68adb70a803	-1.3648785182836043
43	0x3ffabba5f8404ae7	1.6708125779447813
44	0xbff696fbdad83b4c	-1.4118612812632874
45	0xbfd34bf4dcdce2a4	-0.3015110165465933
46	0xbff744d7b3a22524	-1.4543072716645122
47	0x3f9bf609701bd77d	0.027305743663382998
48	0xbff3ae83423dd289	-1.2301056468542433
49	0xbfe1c9c338e8d175	-0.5558792220604533
50	0x3fc7f7deb31b64c8	0.1872518896623545
51	0x3feba4ad4c9bbac0	0.8638521667724817
52	0xc00042d1637b5f73	-2.0326259395623594
53	0xc00355fe64e0b6e7	-2.4169891244008457
54	0x3fef45cf1cfa42c4	0.9772716108291992
55	0xc00130b616b5a556	-2.148784806650535
56	0xbff296322b38b68c	-1.161668938478587
57	0xbfe029c5f6dc0837	-0.5050992795443169
58	0x3fd2fe4b5e39941f	0.29677089883472435
59	0x3fecdac4ab888725	0.9017051077136996
60	0xc000f744ab4e24fb	-2.1207364447806163
61	0xc00271915a0298fb	-2.305453017429611
62	0x3fec48344dbd4881	0.8838140028331197
63	0xc0023613909a834e	-2.276404504504547
64	0xbff33fb9014932e1	-1.2030572939140074
65	0xbfe5b30ecf73e4c1	-0.6781076480684974
66	0x3fc8d6b23036509d	0.19405200342283005
67	0x3fede4c6904c566a	0.9341767137836545
68	0xbfff4b3786bba39b	-1.9558635008818104
69	0xc0019d6da6c5286b	-2.2018692997854052
70	0x3fee5857f9afed40	0.9482841374114415
71	0xc002e6d29007009e	-2.3627063038002936
72	0xbff29497a679f72c	-1.1612774374947987
73	0xbfe4bf97faf33d56	-0.648387899529477
74	0x3fcab39df140fe6d	0.20860647468542784
75	0x3fedad08bf89897f	0.9273723355257032
76	0xbffe6de9f6a3d89b	-1.9018344530464109
77	0xc0010c4957336ca4	-2.1309992611473536
78	0x3feb920bdeef2717	0.8615779260810282
79	0xc0035628a5615669	-2.4170697136240062

tails.15.encoder.bias f8 [8]
0	0x400d91a8659c648e	3.696121972880582
1	0x3fdfa0eaa256a0be	0.4941965661369173
2	0x4011999c6f09329a	4.400010809837704
3	0xbfd7847c22822168	-0.3674612366671881
4	0xbf93a13055fe6a84	-0.019169574021001626
5	0x3fea4d44d8df33e3	0.8219322429446233
6	0x400314d0fbd0baed	2.3851642296862026
7	0x400c31e06e7456d6	3.524353850293532

tails.15.decoder.bias f8 [10]
0	0xbfe441d1ce1b7c78	-0.6330346131834537
1	0xbfe2cbb8bcf01154	-0.5873683633986198
2	0x3fd15b73ae5ffbab	0.27120677975465907
3	0x3fcfed0ae551a0f7	0.24942146489343717
4	0x3f97e179da62bd32	0.02332106013699082
5	0x3fb03a391ff002e2	0.06338841466641612
6	0x3fe35b3121b6a135	0.6048818262543479
7	0x3fe1f6d44b576df8	0.5613805266870591
8	0x3fe6915cf2de268c	0.705244516707539
9	0x3fe78be57c7e0629	0.7358272010316728

tails.16.encoder.weight f8 [10, 8]
0	0xbf94c6a3b51ec06b	-0.020288999490447084
1	0xbff267c10b31e4d7	-1.1503305852223116
2	0xbfec6d34a9cb482b	-0.8883307758608273
3	0xc0020998f79a7951	-2.254686293031377
4	0xbfe941cd84ac105d	-0.7892825690510211
5	0x3f7d71190488e26e	0.007187936521000011
6	0xbff62d9ddb28ab81	-1.3861368714230766
7	0xbfe99d2f47c0b164	-0.8004375840587667
8	0x3fb7a3c354dfe170	0.092342575284311
9	0xbfd24ed51b3acf97	-0.28606155070451095
10	0xbfff5ae804bc28bc	-1.959693926330643
11	0xc00d91446f7cd5ed	-3.695931311604673
12	0x3fc53e060d659d2f	0.16595531133791883
13	0xbfb311e19cb56390	-0.07449159694568963
14	0xbff5b8100ba8facf	-1.3574371772262344
15	0x3fc8f03c3e5d8c66	0.19483140034853647
16	0x3f5fb07cee87e511	0.0019341678654412645
17	0xbff3fe315b74eca9	-1.2495587894943958
18	0xbfe778475c0be444	-0.7334324643881094
19	0xc0007d2f00ac1809	-2.0611248066443335
20	0xbfecb01b0be42934	-0.8964972717524575
21	0x3f97699ad5883a87	0.022863787920921055
22	0xbff52da58271be51	-1.3236441703301305
23	0xbfed1d9f1b9a9f96	-0.9098659075871065
24	0x3f9b79425a054ef7	0.026829754585675904
25	0xbff2e7b92485fac5	-1.1815730501836452
26	0xbfe825c92c7ff50b	-0.7546125287186966
27	0xc000e7f0cac9a543	-2.1132522433078136
28	0xbfef357faf56b72c	-0.9752806114754313
29	0xbf91d86630bf1b4f	-0.017427059865237123
30	0xbff353942ffa0e1e	-1.2079049944012534
31	0xbfeef6c325632dd2	-0.9676223497603422
32	0xbf9e971643722e7c	-0.029873226038530806
33	0xbff40a1047797879	-1.2524569313023035
34	0xbfe7fef393748f12	-0.7498720054613577
35	0xc000b453d9229c60	-2.088050552719821
36	0xbfef3ddeafdd5a2b	-0.9763024744850716
37	0xbf4682122e7eebff	-0.0006868923928701197
38	0xbff428ffa9c5bc5a	-1.2600094444021779
39	0xbfeb903179e025ae	-0.8613517170317004
40	0xc00745a3d46da270	-2.9090038867910195
41	0x3fd0c972654985c1	0.2622953404553208
42	0xbfeb87a9ed3372bd	-0.8603105194884716
43	0x3fde0e02fe505841	0.4696052058728846
44	0x3fc131e6ccc4fdb1	0.1343353748179488
45	0xbffe095af66126c5	-1.8772840141486296
46	0x3fc2e074d737e027	0.14747486599640178
47	0xbfe42848320c5b7d	-0.6299172379975598
48	0xc0098800f4cad557	-3.1914080738448933
49	0x3ff4877c40900019	1.2830774805042948
50	0xc002cd5aa2767a52	-2.350270528069168
51	0xbff5d41ee58f801c	-1.3642872779091766
52	0x3ff6aedd8925a383	1.417691741686412
53	0xc002bc4db36146b0	-2.341945077329761
54	0x3fd0da78e686b752	0.26333448898627865
55	0x3feabf5248ddcc15	0.8358546660587104
56	0xbffd3af52393ec77	-1.826893938995253
57	0xbfce09e93ff0a82e	-0.23467746374200388
58	0xbfc61663557cf2b9	-0.17255822824690428
59	0x3ff68b5964569754	1.4090207976782567
60	0xbff031e8c862bf2f	-1.0121848895614212
61	0xbff63246f8ca7dec	-1.3872747152707872
62	0x3fa497c03ac6328b	0.04022026746233561
63	0xbffe82ce7f826bad	-1.9069352131689172
64	0xbff6dbbefce50cd9	-1.4286489371013913
65	0xbfed875376b074ea	-0.9227692907476499
66	0x3fc1b6af3d5c909a	0.1383875894181344
67	0x3ff283bb8e0ca090	1.1571612881471403
68	0xbff72e5f45eaf7e5	-1.4488213282743285
69	0xbfee524a88d0e2cd	-0.9475453064142926
70	0xbfcfd77aae7f0edf	-0.2487634040863815
71	0xc00291c6f9f8d2ac	-2.321180298715566
72	0xbff9212340e0da4f	-1.5705902609166917
73	0xbfe72452eb4d1b36	-0.7231840701796048
74	0xbf8b5ca67516cb3a	-0.013360310028337364
75	0x3ff6f251026fd219	1.4341592879474148
76	0xbff4988941db1af3	-1.2872402737136184
77	0xbff116e819a71934	-1.0680924417552662
78	0xbfcb5fe9ba3101cd	-0.21386453238848305
79	0xc0023a5c72337264	-2.278496639437707

tails.16.encoder.bias f8 [8]
0	0x3ff38110652a8e23	1.2190097762876426
1	0x3ffe4c6c63789436	1.893658054884566
2	0x400febe9f4c1036e	3.99019232954054
3	0x3fda1a58fc0693c7	0.40785812961467766
4	0x4001ec5760289364	2.2404010307677016
5	0x40072c76b715e631	2.8967108062322713
6	0x3ffab96e4bb0d6f1	1.6702712017699322
7	0x3ff133b68af3f08d	1.0751252582404363

tails.16.decoder.bias f8 [10]
0	0x3ffd57054e851047	1.8337452952555553
1	0x3ffbfad21d51642a	1.7487355370742628
2	0x3ffdc7266804d47a	1.8611206114995
3	0x3ffee3a172b08e83	1.9305738906922734
4	0x3ffe829ba46eba10	1.906886713327939
5	0x3ffa685b1175afd6	1.6504774744052972
6	0x3fff7699fbb86c15	1.9664554436519712
7	0x3ffc622dd7d2d8d6	1.7739695005998803
8	0x3ffe5c8b7de998be	1.8975939672905464
9	0x3ffd9eeced8b5380	1.8513001708099353

tails.17.encoder.weight f8 [1, 1]
0	0xc01af5f4e0c55e29	-6.740191947981239

tails.17.encoder.bias f8 [1]
0	0x3ffc6a63cf11accd	1.7759740913996211

tails.17.decoder.weight f8 [1, 1]
0	0xc01af5f4e0c55e29	-6.740191947981239

tails.17.decoder.bias f8 [1]
0	0x40075931219f47ab	2.9185507418378243

tails.18.encoder.weight f8 [5, 4]
0	0xbffaa6b85fdb2702	-1.6657031769158839
1	0xc010b730cacaf1fe	-4.178897064816281
2	0xbffae028c067102e	-1.6797263637281605
3	0xbff829cc7cc2f50d	-1.510204779958545
4	0xbff79c3a6337493d	-1.4756416202186096
5	0xc0110886e131eafe	-4.258327025100469
6	0xbffc9fa9e5bebb67	-1.7889803862014675
7	0xbff8e484d000a7e8	-1.555790722379692
8	0xbff7064b02289d36	-1.439036377365324
9	0xc010f5bdb68cfba8	-4.239981510500833
10	0xbffb656e8828a6bd	-1.7122636145308399
11	0xbffa4ee5d4067c4c	-1.6442621500243773
12	0xbff7e83162a48700	-1.4941877225141411
13	0xc010e32d0e9f34b5	-4.221851566760212
14	0xbff9b7d20c69df3a	-1.607378052225569
15	0xbff9da7ea2c5d2da	-1.6158434255896084
16	0xbff820f863c1685c	-1.50804938284866
17	0xc010d10e0287b970	-4.204155005964239
18	0xbff20fab75d651bc	-1.1288256266608263
19	0xbff80abc77265704	-1.502621140888949

tails.18.encoder.bias f8 [4]
0	0x40075d90aadb5050	2.920686087434696
1	0x3febe52ddfeb9df5	0.8717259763188269
2	0x40120bd9ad943888	4.511572563335115
3	0x4011cc199f61d86e	4.449316492411624

tails.18.decoder.bias f8 [5]
0	0x4009cd81a2e2df53	3.225344917820544
1	0x4009a21ef3d07553	3.2041605995170044
2	0x40097e69bb799a1e	3.1867251059041015
3	0x400958af8541c1d2	3.1683035288517454
4	0x40089288350e55b4	3.071548857212031

tails.19.encoder.weight f8 [10, 8]
0	0xbfeb9825d9530275	-0.8623227352728252
1	0x3fcee4d6082551cb	0.24135852239363795
2	0xbff0f0f60e35f27f	-1.058828406820936
3	0x3fea665942159876	0.8249937334737882
4	0xbfd6023e4022eb6f	-0.34388691199608606
5	0xbffbee269c74d459	-1.7456422912194027
6	0xc009e002c98965be	-3.234380316262757
7	0xbff99b76ed6d6130	-1.60045521492982
8	0xbfe7ed97011199df	-0.7477526684640984
9	0x3fce0cc92989bc63	0.2347651913473526
10	0xbff19c1865283144	-1.100609202522791
11	0x3feaa1fe18aedafb	0.8322744829264076
12	0xbfda1e5fe24983ed	-0.40810391519886374
13	0xbffaf844595fa46a	-1.68561205779613
14	0xc00a0cabb613344f	-3.256186888180799
15	0xbff9f05d0d06f8d4	-1.6211824902416554
16	0xbfd98175d05124d9	-0.3985266241403003
17	0x3fd5821f7fe6e88e	0.33606708040645905
18	0xbfe0c3b5a795d62e	-0.5238903306150797
19	0x3fd4dbb4e1367ad0	0.3259098243087637
20	0xbfd38d69cec54d22	-0.305506183552284
21	0xc0000d47757bde1e	-2.0064839533258825
22	0xc008bde32fce0371	-3.092718480562717
23	0xc006a7fef566ed14	-2.832029263690524
24	0xbfd623c3e0f8c390	-0.3459329316129294
25	0x3fda8bb3eca3d351	0.4147767840325303
26	0xbfe39fb31085e548	-0.6132445643153597
27	0x3fd5a032fa9094ae	0.33790277928558055
28	0xbfd6af1f35a7f3f8	-0.35443859329080807
29	0xc0006b34afde8238	-2.0523465862063652
30	0xc0081a0bb8662571	-3.012717667214638
31	0xc0067f22a3fef4d8	-2.8120777904683614
32	0xbfee7a5fe0f1fe13	-0.9524382966482697
33	0xbff0afb945aa2756	-1.0429012986446273
34	0xbfeba6d21e900366	-0.8641138646054116
35	0x3ffd9eeddbd6b89d	1.8513010585261676
36	0xbff16e969ad708f9	-1.0894990967213387
37	0xbfee55c444f0c065	-0.947969565057076
38	0xc003ccb8ae4bc6b4	-2.4749616257548386
39	0xbfd4e2d2ce5d5d4b	-0.3263442054062195
40	0xbff0e393df327ff5	-1.0555609434741176
41	0xbff03eace49c1ef2	-1.0153016023704677
42	0xbfed3cf8192bbe77	-0.9136925212496426
43	0x3ffd91eb02424f70	1.848124512504878
44	0xbfef4781ac4ce05c	-0.9774788251152233
45	0xbfee2bae746a84d3	-0.9428322099448913
46	0xc003c831b5821e31	-2.472751062425026
47	0xbfd3da7ee448c09c	-0.3102109174096854
48	0xbff2f9507da342c4	-1.1858677776073572
49	0xbff7fb17dbaa78c3	-1.4988020497035428
50	0xbfec18b1c330ed85	-0.8780144512488027
51	0x40052975fe06da64	2.645244583686962
52	0xbff547d381e982e3	-1.3300356936162465
53	0xbfecc1f7bc8a5828	-0.8986777002744519
54	0xc0013fe56ebd85ec	-2.156199326666629
55	0x3fd08a71befd251c	0.25844997073416365
56	0xbff23818a725a578	-1.1386953858549003
57	0xbff768afb51b4ffe	-1.4630581926803639
58	0xbfe874b23b3c15c3	-0.7642451435973999
59	0x400584af01e6158f	2.6897869251576547
60	0xbff6f5e95b585ec2	-1.4350369995280947
61	0xbfe9c78a369a07b5	-0.8056078974188866
62	0xc001aa373f2ad1d1	-2.2081131873075965
63	0x3fc3d562702f4ec6	0.15494947889111738
64	0xbff2b60da4c9c995	-1.1694466054001158
65	0xbffb2ca0a1e61930	-1.6983953785107353
66	0xbfe9f15af7e412bb	-0.8107123223895408
67	0x40086fb8f5ed552b	3.054552003197974
68	0xbff73415be1adff8	-1.4502160478568822
69	0xbfeaa1ba45a10c36	-0.8322421417182173
70	0xc0004f8f8ce1770b	-2.0388480192476712
71	0x3fdcac7102666041	0.4480249904095253
72	0xbff290a547d1ed11	-1.1603138738126442
73	0xbffb68b847ce7f58	-1.7130663685747631
74	0xbfeae00a920907d5	-0.83984879038348
75	0x40086f4eb703a8e3	3.0543493555061203
76	0xbff683bbe2eabb45	-1.4071616043035686
77	0xbfe710b6486c57a6	-0.7207900442615383
78	0xc00108b45c104621	-2.129250258680955
79	0x3fda9e089944dc96	0.415895604779004

tails.19.encoder.bias f8 [8]
0	0x4010ef6e59836a09	4.233819388051878
1	0x401079c2dfd0b159	4.118907448875995
2	0x40079c5b64ad0515	2.951346193819186
3	0xbfeb08537b6b5be3	-0.8447663698706233
4	0x40121a49dd2dca2c	4.525672393722328
5	0x3fe1eade04684921	0.5599203191834797
6	0x3fec274ebcdf5344	0.879798287288033
7	0x4003b9918cc59026	2.4656096456328838

tails.19.decoder.bias f8 [10]
0	0x400434d1fe88e978	2.5257911572963927
1	0x4004262b581389b3	2.518637359710931
2	0x400802aed875e33e	3.001310053918501
3	0x4007d2fb685c589f	2.9780185845548455
4	0x3ff7f65bd403ffce	1.4976461679325328
5	0x3ff7ee4e79f5c9ec	1.495680309683503
6	0x3fe7ec7b73c82f9a	0.7476174603811956
7	0x3fe677c1b0aaf783	0.702118725828527
8	0x3fda559ce6deb9ce	0.41147539659405374
9	0x3fda5919473e2c26	0.4116881557208124

head.encoder.weight f8 [20, 15]
0	0xbfebe3ef8fee4be0	-0.8715741931104013
1	0xbfe3255c4570daca	-0.5983105999246956
2	0xbfe6025aa6e3cf02	-0.687787366825859
3	0xbfe5c1c76bcccb3e	-0.6799046617000852
4	0xbfde49ff98d3208d	-0.47326650547302834
5	0xbfed8eb48df33f51	-0.9236700794662999
6	0xbff2a9a1a7b50268	-1.1664139319474547
7	0xbfe4b8ca7c2d6bde	-0.6475574899044394
8	0xbfd19fe7241ade40	-0.27538469816088096
9	0xbfdd922a3181615f	-0.4620461924983114
10	0xbfe18c70152ad4ba	-0.5483932889389032
11	0xbfec589dee81b2e4	-0.8858174951870663
12	0xbff218565d6a5deb	-1.1309417389910503
13	0xbfde1f19797cb7a6	-0.47064816345197824
14	0xbfe59c21f56ef6f4	-0.6753091615316564
15	0xbfebde5ca770bd42	-0.8708937902755809
16	0xbfe90641247863d8	-0.7820134842214612
17	0xc009b05331ee8c40	-3.211096181957629
18	0x3fd84512bbca68e5	0.37921589220935764
19	0x3fe40c78c612b617	0.6265224331488665
20	0xbfe059def060fbf2	-0.5109705634021096
21	0xbfe15414e2618c52	-0.5415138646607238
22	0xc00727c3e08be10e	-2.8944165747344703
23	0xbffc2ee17cc09be2	-1.761445510210017
24	0xbfc1cb3dcb61160a	-0.1390149348318775
25	0xbff78e70955a2aeb	-1.472275336653804
26	0xbffb07b22b56c474	-1.689378899853435
27	0x4003305f19e45276	2.39861889102968
28	0xbfe4ad64d0691a09	-0.6461662359732269
29	0x3fe03fb4a30d95a5	0.5077765640859765
30	0x3fe2823009b988eb	0.5783920469223437
31	0xbfca2dc62aadb5d5	-0.20452191432870728
32	0x3fcdf56ae054b8ed	0.23405204728755483
33	0xbfea722ff5a21c4b	-0.8264388844990064
34	0xbfc8ae0f1fb8ec47	-0.19281186150496607
35	0x3fe2754687efc37b	0.5768158583651791
36	0xbfed2be4a411f493	-0.9116080479140173
37	0xbfbff405d94e1ed7	-0.1248172431497737
38	0xbfdd637229bd1fc5	-0.4591946990590226
39	0x3fa37fa7a1f5430c	0.03808330394770651
40	0xbfec2868c5efcade	-0.8799327722502672
41	0xbff2caa60a26e7d7	-1.1744747540055778
42	0xbff46ba0f396ab00	-1.276276542203675
43	0xbfc0d5e13e2479e4	-0.13152709516812344
44	0x3fce60b3efeef441	0.23732613769053226
45	0xbfe8a9176bce1ab9	-0.7706410508697764
46	0xbfeaa1d71a14f3c4	-0.8322558888827349
47	0xbfe8eb26261dface	-0.7787047142481585
48	0xbff7440ed436e0a1	-1.454115704500545
49	0xbfd415bbdc1239c1	-0.31382652751281276
50	0xbffb65ffc6beea69	-1.7124021304613513
51	0xbff235337d8495e0	-1.1379885581057962
52	0xbf9f31e656f57b2e	-0.030463789994765005
53	0xbfcfbae79fa49d2f	-0.24789138121671203
54	0xbff4699696011c6e	-1.2757783755821737
55	0x3fcba00ce5ba45ad	0.2158218499867365
56	0xbfeaa2d6766da92f	-0.832377654366871
57	0xbffb06891caf2a36	-1.6890956039884606
58	0xbfa87a44669a3e0b	-0.04780782463523899
59	0xbfea78d78fa109a2	-0.827251225018973
60	0xbff226eed2a734f1	-1.1345051029814466
61	0xbfecc397dd52a508	-0.8988761255942856
62	0xbfea61d360b60575	-0.8244416130911946
63	0xbff6e0072a348f21	-1.429694332947243
64	0xbfe3f9573f463731	-0.6241871105027937
65	0xbff656cc461dc6ea	-1.3961909045141803
66	0xbff17f412345df64	-1.0935679796075073
67	0xbfde214bf348cf84	-0.4707822681259517
68	0xbff086caebcef358	-1.0329083644166612
69	0xbff0442c2af44ff1	-1.0166436841873259
70	0xbfe781e69fa4faa2	-0.7346070402198459
71	0x3fbeb8e21be29ba2	0.12000859432974534
72	0xbff0fa7e7828cd08	-1.0611557668424343
73	0xbfe081ca0104b812	-0.5158433933154376
74	0xbfdb12c59cdda3aa	-0.42302074736522377
75	0xbfe6b244aa993a23	-0.709261258316307
76	0xbfe3a8a49bb260ee	-0.6143363038018188
77	0xbfe7727706a25f9c	-0.7327227716041196
78	0xbff530b4bfa43e61	-1.32439112529746
79	0xbfd7b058b3aa3daf	-0.37013833566103477
80	0xbff1c2e2b8d4d366	-1.1100795001959454
81	0xbfedf6c5553e5bdf	-0.9363733925737242
82	0xbfd18241279789b0	-0.27357510439301347
83	0xbfe93ff44a553b08	-0.7890569164099768
84	0xbfe830cfaadf1ab4	-0.7559583985647209
85	0xbfe5cf1fafda3dd7	-0.6815336641902218
86	0x3fb83c9cbec4be46	0.0946748700850942
87	0xbfe93518b33612c1	-0.7877315044612133
88	0xbfba8b67ad64891d	-0.10368965132923731
89	0x3f86afdbc10410fc	0.011077610805394482
90	0xbffac542533c5035	-1.6731589557066517
91	0xbfee40bd8f311afd	-0.9454028889384457
92	0x3fb9ef4643941418	0.1013072886454015
93	0xbfe120e157a061ca	-0.5352637015776562
94	0xbff418470a220137	-1.255927123624202
95	0xbff213120ec42e96	-1.129655893021583
96	0xbfdddee6a4d619fb	-0.46672979447649227
97	0xbfd1067c6378833f	-0.26602086748066606
98	0xbff5a2a65dd84792	-1.3522094407858032
99	0xbfe1b39cdf906e69	-0.5531753889549239
100	0xbff02420fa0a2f68	-1.0088205115489135
101	0x3ff45d8853536356	1.2728350882445816
102	0xbfe0bb06535bdaea	-0.5228301647283307
103	0xbfef1bd17356323e	-0.9721457722349169
104	0xbfe81f0618bd112c	-0.7537870867895768
105	0xbff84778004074c8	-1.5174484262309296
106	0xbff254329c17b270	-1.145556077705944
107	0xbfcf1c8448028e3b	-0.24305776134598198
108	0xbff947d3655a73a9	-1.5800355872263288
109	0xbfea81a678e6cea0	-0.8283264504775225
110	0xbff88056cdc15224	-1.531332782488911
111	0xbff0459e87687155	-1.0169968881010238
112	0xbfd5d445e28b3dff	-0.34108111499241994
113	0xbff191ad27fd2c46	-1.0980655252522111
114	0xbfeccd5f2e57229a	-0.9000697999081979
115	0xbfef3b3dbe3e96f0	-0.975981589862128
116	0x3ff0ee81e58ee1cb	1.0582293479075016
117	0xbff4cb32adf0cded	-1.2996088785702071
118	0xbfe29f6abdfa08f8	-0.581960078285447
119	0xbfdf27b5d854e7cf	-0.4867987263311279
120	0xbfe78415f179188b	-0.7348737446088917
121	0xbfe039227e1cf419	-0.5069744551798322
122	0x3fd49b8017a97811	0.3219909888338189
123	0xbfeba2896838439f	-0.8635909114401449
124	0xbff1bff2f7a55479	-1.1093625711121418
125	0xbfeb1f70ad959171	-0.847587908775081
126	0xbfe73a38769303dc	-0.7258570018676624
127	0xbfc0e67f0f684db6	-0.13203418972316933
128	0xbfef1e7b597e5902	-0.9724709270401777
129	0xbfe96de9b6b88ff6	-0.7946671074646463
130	0xbfeaf6c3a2332dd3	-0.84262258224174
131	0x3fea7d0372591fb2	0.8277604325639827
132	0xbfec65230ebc0c4c	-0.8873458183082987
133	0xbfeccaeb9d7bbf21	-0.8997705531928412
134	0xbfe7f5899b2101aa	-0.7487228422033259
135	0xbff63056ece2d012	-1.3868016484602816
136	0xbfe7ebb0307d6f78	-0.7475205370969737
137	0xbfdce446de4c37d8	-0.45143291195642865
138	0xbff3e252fc2ca82a	-1.2427549219669438
139	0xbfe8b925bf691095	-0.7726010073170239
140	0xbff5fcb941e13aa6	-1.3742001126699193
141	0xbfe79e3f2dfcf238	-0.7380672357754241
142	0xbfc92866f2f1e058	-0.1965454756025362
143	0xbff27880b115dcd3	-1.1544196050070255
144	0xbfeae21c65f31186	-0.8401014319611455
145	0xbfed8b72b4cb8933	-0.9232724696305808
146	0x3fe8c3864eda3922	0.7738677539908034
147	0xbfed9d89de232e69	-0.9254807795163745
148	0xbfe1501deed33242	-0.5410298981237889
149	0xbfd7ff401040e93c	-0.3749542387701188
150	0xbfd417239afb409a	-0.31391229758174577
151	0xbfdd0bb811269851	-0.4538402717101962
152	0xbfeaffcbb9590406	-0.8437250728676424
153	0xbfd5189179cdbbf9	-0.32962452788245816
154	0xbfcb4ab0701d4fa0	-0.21321683382359158
155	0xbfccfce261b1e718	-0.2264674164796865
156	0xbfd7906945176783	-0.3681891607972078
157	0xbfe559c10189eb08	-0.6672062902501645
158	0xbfe478dd41d6e6ce	-0.6397539411475124
159	0xbfe3eff3cb57bada	-0.6230410548722276
160	0xbfe7cf42ed3e0871	-0.7440504678381911
161	0xbfec542615cbcda7	-0.8852720666604242
162	0x3fc386d2a6d8ece1	0.1525519671139142
163	0xbfd4bea93e8c682a	-0.3241370306801651
164	0xbfcb3ac2a5253e20	-0.2127307230352793
165	0x3fbf46a9232b92e9	0.12217194660804477
166	0xbfba46aabd3c4960	-0.10264079208380883
167	0xbff19b483a4c5a02	-1.1004106786036805
168	0xbfc5ea4bd46bde42	-0.17121265289437032
169	0x3fe15215b1fd48e5	0.5412701107364027
170	0xbfd2cbe848fc3a67	-0.29369551780192754
171	0xbfd9f766e493e4a7	-0.4057252151683976
172	0xbfe0344167f21e3d	-0.5063788442793747
173	0x3fc942d935ef57cc	0.19735255368749305
174	0xbfeba24ecdbda4b7	-0.8635629671454329
175	0xbfb5e57922f6517f	-0.08553273299759744
176	0xbff88612abd12bfa	-1.5327326499561864
177	0x3fba3d7f3f6c0701	0.10250087068927984
178	0x3fddd88b38609173	0.4663417864378722
179	0xbfb18d321a913abc	-0.0685607256757334
180	0x3fc3a8838c891d52	0.15358013498392126
181	0xbfcc793cee812311	-0.22244989057278322
182	0x3fc306df68c341a5	0.14864723792426307
183	0xbfe265c7bc3d782f	-0.5749243427815197
184	0xbfcd861313470010	-0.23065412942196462
185	0xbff8925ccabf98da	-1.535733024583854
186	0xbfe42ccef45d196f	-0.6304697773673932
187	0x3ff4bd9bb7dc9fba	1.2962910825826683
188	0x3ffaf58b655b315e	1.684947391436331
189	0xbff88ac0853e6521	-1.533875008090327
190	0x3ffe95e9c5c5819b	1.911599895997006
191	0xc0024102aa6c2143	-2.281743365692962
192	0xc0073441ba3a0bf2	-2.900515990158504
193	0x3fa9b54fea56dbd6	0.050211427074308965
194	0xc001d3629edd6679	-2.2282154475513463
195	0x3fc784cc265fe7bd	0.18374015687714787
196	0xbfab2603795d6d69	-0.05302439552789446
197	0xbfb2f1eb23503ceb	-0.07400388347763324
198	0xbfd40aa8986ad157	-0.31315054783342106
199	0x3f964654bb828b71	0.02175266642064905
200	0xbfedac2962f022ef	-0.9272658283599337
201	0xbfd5a00388b0896d	-0.33789146755784466
202	0x3fee5d56e5daca0b	0.9488939751957458
203	0x3ff7be6f1fdc74a5	1.4839926952911722
204	0xbff1677667ddfda8	-1.0877594048796286
205	0x3ff8227995c4d275	1.508416733774678
206	0xbffdf2879b55c8f3	-1.8717113559510465
207	0xc0009997261fbe14	-2.0749953249394455
208	0x3fa98f817f151c9a	0.049922987711903136
209	0xbff9ca7945801993	-1.6119320597514146
210	0xbfd52786bd053150	-0.3305374952222069
211	0xbfd116954bd62793	-0.2670033684340691
212	0xbff4fc2d7f9b77ba	-1.3115668282184587
213	0xbfd6bba989ae66da	-0.3552039951842808
214	0x3fcefcb38c5908d7	0.24208683350486268
215	0xbfe379d368689707	-0.6086213149289684
216	0xbfe1d33980206332	-0.5570342543097466
217	0xbfe8b5945dfccfe2	-0.7721654735273626
218	0xbfc25a18fe6bd81d	-0.14337456152833364
219	0xbfeb589a5a79f321	-0.8545657889477277
220	0xbfdbb25c4a84ccc9	-0.43276126172277124
221	0xbff9a04e79c0b1fc	-1.6016373401608908
222	0x3fb99eba48067b93	0.10007824190550556
223	0x3fd18711dc373859	0.2738690043014507
224	0xbfd2ffd2d22963be	-0.29686422847367655
225	0xbfce8d0027cd0878	-0.2386779970493682
226	0xbfda42a2b5e3ae2d	-0.41031711351999683
227	0xbff07209f83a380f	-1.0278415390380393
228	0xbfda716b804fbfac	-0.41317260294362756
229	0xbfb739e969e4b188	-0.09072741351400826
230	0xbfebd0cd71f34c15	-0.8692385888665536
231	0xbfdc91f92c26c1a1	-0.4464095050016344
232	0xbfd5f4ab8813f647	-0.3430584744345179
233	0x3fda7a4ab3463569	0.4137140989995119
234	0xbfee6e382c91fb22	-0.9509545202743974
235	0xbf9175c5ebd30dc0	-0.017050831335621686
236	0xbff8c43a5f50c215	-1.5479072306881154
237	0xbfde185e76d7cf9f	-0.47023736577761527
238	0x3fb568b1bc983e3e	0.08362875799525057
239	0xbfeba6e41732c471	-0.8641224339572898
240	0xbff4ae384d9f71c7	-1.2925341636792937
241	0xbff1f2f1269570b1	-1.1218120104959264
242	0xbfe346b287a00ab9	-0.6023800515107133
243	0x3f93ae00306a2455	0.019218447642320353
244	0xbff7c8f7907c0b7a	-1.4865642208030452
245	0xbfcdffcebb3c1a65	-0.2343691267235101
246	0xbfbc91c2318a0e08	-0.11159909924941058
247	0xbff1a2e5e6f9da78	-1.102270033121071
248	0xbff8791a9a671d46	-1.5295663863524438
249	0x3fb6a4ac42b68886	0.08845020893798691
250	0xbff557f8c8033c2f	-1.3339774907106052
251	0xbfd96c3dc4776aed	-0.3972315233819888
252	0x3fdfec04b052cc30	0.4987804147633055
253	0xbffa9409f25b2448	-1.6611422984153865
254	0xbfed444dd761fc6a	-0.9145878988928307
255	0xbfd9fb73f8b4de5c	-0.4059724739813413

head.encoder.bias f8 [15]
0	0xbfd3028638db3133	-0.2970290713535803
1	0xbfcfd0266987262a	-0.24853973534327284
2	0x3fd9d3aa34fd77a9	0.40354399847808026
3	0x3fbf3ebc53f3acdf	0.12205102014165757
4	0xbfcb7dee0bfede17	-0.2147805746624136
5	0x3f778b2cd1b5301b	0.005747962069403224
6	0x3fbbf68495ba612e	0.10923031478376252
7	0x3fc937a76b977b7f	0.19701092484953261
8	0xbfcbc5240ba54a7f	-0.21695375984798557
9	0x3fac8713cfd29c48	0.05571805869959029
10	0xbfc93acdcebc5af4	-0.19710705370444936
11	0x3fde2a3609314abc	0.47132635972699766
12	0x3fcc8f97c54268a6	0.22313210613066764
13	0xbfc0d1b68427d173	-0.13139993145854198
14	0x3fb7c78fb4ee8899	0.09288881461410127

head.decoder.bias f8 [20]
0	0xbffb28c30db3d6b8	-1.6974516425374713
1	0x3fc6be7b44ecc0e5	0.17768803468198438
2	0xc001d7ab7175f75b	-2.2303074707150876
3	0xbfd8c922fd2a2a39	-0.38727640841594596
4	0xbfb18b0bc2bfe43c	-0.06852792267444924
5	0xbfe5353e68b6a673	-0.6627494855103592
6	0x3fe97d33acfc68e6	0.7965334299690567
7	0x3ff1b38565f3c54b	1.1063283903607324
8	0xbfc7ccb509e03fd0	-0.18593466741776732
9	0x3fe24e2aaa75b73a	0.5720418290418146
10	0xbfee28a6613243af	-0.9424621485105628
11	0xbff124f39b3c7eee	-1.071521383659213
12	0xbfd184e4ccab7047	-0.2737361906745303
13	0xbfe03a2100594ab1	-0.5070958144009038
14	0xbff1f48299df3d2f	-1.1221948633791035
15	0xbfe3dd12f1af5a1d	-0.6207365723046824
16	0x3fd43adf4db1ea7e	0.3160932787647325
17	0xbfcb237b9e74ce3e	-0.21202035176394135
18	0x3fdd2bad4e19e47f	0.455790830870292
19	0x3fc682c41b5ecea8	0.1758656629223101
